…
 65 65 65 65 65 65 65 65 65 65 50 50 50 50 50 50 50 50 50 50 50 50 50 50
 50 50 50 50 50 50 50 50 50 50 50 50 50 50 70 70 70 70 70 70 70 70 70 70
 70 70 70 70 70 70 70 70 70 70 70 70 70 70 70 70 70 70 70 70 85 85 85 85
 85 85 85 85 85 85 85 85 85 85 85 85 85 75 75 75 75 75 75 75 85 85 85 85
 85]
(121, 449, 30, 3, 1)

Loaded dataset of 121 samples, each sized (449, 30, 3, 1)


Train on 96 samples
Test on 25 samples

Model: "model_1"
_________________________________________________________________
Layer (type)                 Output Shape              Param #   
=================================================================
name_model_input (InputLayer (None, 449, 30, 3, 1)     0         
_________________________________________________________________
time_distributed_1 (TimeDist (None, 449, 28, 1, 16)    160       
_________________________________________________________________
time_distributed_2 (TimeDist (None, 449, 14, 1, 16)    0         
_________________________________________________________________
time_distributed_3 (TimeDist (None, 449, 224)          0         
_________________________________________________________________
time_distributed_4 (TimeDist (None, 449, 64)           14400     
_________________________________________________________________
time_distributed_5 (TimeDist (None, 449, 64)           0         
_________________________________________________________________
time_distributed_6 (TimeDist (None, 449, 64)           4160      
_________________________________________________________________
gru_1 (GRU)                  (None, 128)               74112     
_________________________________________________________________
dropout_2 (Dropout)          (None, 128)               0         
_________________________________________________________________
name_model_output (Dense)    (None, 1)                 129       
=================================================================
Total params: 92,961
Trainable params: 92,961
Non-trainable params: 0
_________________________________________________________________
Train on 86 samples, validate on 10 samples
Epoch 1/30

32/86 [==========>...................] - ETA: 0s - loss: 0.3873 - mae: 0.5333 - mse: 0.3873
64/86 [=====================>........] - ETA: 0s - loss: 0.3224 - mae: 0.4890 - mse: 0.3224
…
