…
 50 70 70 70 70 70 70 70 70 70 70 70 70 70 70 70 70 70 70 70 70 70 70 70
 70 70 85 85 85 75 75 75 75 75 75 75 75 75 75 75 75 75 75 75 75 75 75 75
 75 75 75 75 75 75 75 75 75 75 85 85 85 85 85 85 85 85 85 85 85 85 85 85
 85 85 85 85 85 85 85 85 85 85 85 85 85 85]
(158, 394, 30, 3, 1)

Loaded dataset of 158 samples, each sized (394, 30, 3, 1)


Train on 126 samples
Test on 32 samples

Model: "model_1"
_________________________________________________________________
Layer (type)                 Output Shape              Param #   
=================================================================
name_model_input (InputLayer (None, 394, 30, 3, 1)     0         
_________________________________________________________________
time_distributed_1 (TimeDist (None, 394, 28, 1, 16)    160       
_________________________________________________________________
time_distributed_2 (TimeDist (None, 394, 14, 1, 16)    0         
_________________________________________________________________
time_distributed_3 (TimeDist (None, 394, 224)          0         
_________________________________________________________________
time_distributed_4 (TimeDist (None, 394, 64)           14400     
_________________________________________________________________
time_distributed_5 (TimeDist (None, 394, 64)           0         
_________________________________________________________________
time_distributed_6 (TimeDist (None, 394, 64)           4160      
_________________________________________________________________
gru_1 (GRU)                  (None, 128)               74112     
_________________________________________________________________
dropout_2 (Dropout)          (None, 128)               0         
_________________________________________________________________
name_model_output (Dense)    (None, 1)                 129       
=================================================================
Total params: 92,961
Trainable params: 92,961
Non-trainable params: 0
_________________________________________________________________
Train on 113 samples, validate on 13 samples
Epoch 1/30

 32/113 [=======>......................] - ETA: 1s - loss: 0.2741 - mae: 0.4560 - mse: 0.2741
 64/113 [===============>..............] - ETA: 0s - loss: 0.2343 - mae: 0.4206 - mse: 0.2343
…
