…
 70 70 70 70 70 70 70 70 70 70 70 70 70 70 70 70 70 70 70 70 70 70 70 70
 70 70 70 85 85 85 85 85 85 85 85 85 85 85 85 85 85 85 85 85 85 85 85 85
 85 85 85 85 85 85 85 85 85 85 85 85 85 85 85 85 85 85 85 85 85 85 85 85
 85 85 85 85 85 85 85 85 85 85 85 85 85 85 85]
(183, 467, 30, 3, 1)

Loaded dataset of 183 samples, each sized (467, 30, 3, 1)


Train on 146 samples
Test on 37 samples

Model: "model_1"
_________________________________________________________________
Layer (type)                 Output Shape              Param #   
=================================================================
name_model_input (InputLayer (None, 467, 30, 3, 1)     0         
_________________________________________________________________
time_distributed_1 (TimeDist (None, 467, 28, 1, 16)    160       
_________________________________________________________________
time_distributed_2 (TimeDist (None, 467, 14, 1, 16)    0         
_________________________________________________________________
time_distributed_3 (TimeDist (None, 467, 224)          0         
_________________________________________________________________
time_distributed_4 (TimeDist (None, 467, 64)           14400     
_________________________________________________________________
time_distributed_5 (TimeDist (None, 467, 64)           0         
_________________________________________________________________
time_distributed_6 (TimeDist (None, 467, 64)           4160      
_________________________________________________________________
gru_1 (GRU)                  (None, 128)               74112     
_________________________________________________________________
dropout_2 (Dropout)          (None, 128)               0         
_________________________________________________________________
name_model_output (Dense)    (None, 1)                 129       
=================================================================
Total params: 92,961
Trainable params: 92,961
Non-trainable params: 0
_________________________________________________________________
Train on 131 samples, validate on 15 samples
Epoch 1/30

 32/131 [======>.......................] - ETA: 1s - loss: 0.2992 - mae: 0.4312 - mse: 0.2992
 64/131 [=============>................] - ETA: 0s - loss: 0.2438 - mae: 0.3942 - mse: 0.2438
…
