…
 50 50 50 50 50 50 70 70 70 70 70 70 70 70 70 70 70 70 70 70 70 70 70 70
 70 70 70 70 70 70 70 70 85 85 85 85 85 85 85 85 85 85 85 85 85 85 85 85
 75 75 75 75 75 75 75 75 75 75 75 75 75 85 85 85 85 85 85 85 85 85 85 85
 85 85 85 85]
(148, 531, 30, 3, 1)

Loaded dataset of 148 samples, each sized (531, 30, 3, 1)


Train on 118 samples
Test on 30 samples

Model: "model_1"
_________________________________________________________________
Layer (type)                 Output Shape              Param #   
=================================================================
name_model_input (InputLayer (None, 531, 30, 3, 1)     0         
_________________________________________________________________
time_distributed_1 (TimeDist (None, 531, 28, 1, 16)    160       
_________________________________________________________________
time_distributed_2 (TimeDist (None, 531, 14, 1, 16)    0         
_________________________________________________________________
time_distributed_3 (TimeDist (None, 531, 224)          0         
_________________________________________________________________
time_distributed_4 (TimeDist (None, 531, 64)           14400     
_________________________________________________________________
time_distributed_5 (TimeDist (None, 531, 64)           0         
_________________________________________________________________
time_distributed_6 (TimeDist (None, 531, 64)           4160      
_________________________________________________________________
gru_1 (GRU)                  (None, 128)               74112     
_________________________________________________________________
dropout_2 (Dropout)          (None, 128)               0         
_________________________________________________________________
name_model_output (Dense)    (None, 1)                 129       
=================================================================
Total params: 92,961
Trainable params: 92,961
Non-trainable params: 0
_________________________________________________________________
Train on 106 samples, validate on 12 samples
Epoch 1/30

 32/106 [========>.....................] - ETA: 1s - loss: 0.4607 - mae: 0.6230 - mse: 0.4607
 64/106 [=================>............] - ETA: 0s - loss: 0.3895 - mae: 0.5499 - mse: 0.3895
…
