…
 65 65 65 65 65 65 65 65 65 65 65 65 65 65 65 65 65 50 50 50 50 50 50 50
 50 50 50 50 50 50 50 50 50 50 50 50 50 50 50 50 50 50 50 50 50 50 50 70
 70 70 70 70 70 70 70 70 70 70 70 70 70 70 70 70 85 85 85 85 85 75 85 85
 85 85 85 85 85 85 85 85 85 85 85 85 85 85 85 85 85 85 85 85 85 85 85 85
 85]
(145, 447, 30, 3, 1)

Loaded dataset of 145 samples, each sized (447, 30, 3, 1)


Train on 116 samples
Test on 29 samples

Model: "model_1"
_________________________________________________________________
Layer (type)                 Output Shape              Param #   
=================================================================
name_model_input (InputLayer (None, 447, 30, 3, 1)     0         
_________________________________________________________________
time_distributed_1 (TimeDist (None, 447, 28, 1, 16)    160       
_________________________________________________________________
time_distributed_2 (TimeDist (None, 447, 14, 1, 16)    0         
_________________________________________________________________
time_distributed_3 (TimeDist (None, 447, 224)          0         
_________________________________________________________________
time_distributed_4 (TimeDist (None, 447, 64)           14400     
_________________________________________________________________
time_distributed_5 (TimeDist (None, 447, 64)           0         
_________________________________________________________________
time_distributed_6 (TimeDist (None, 447, 64)           4160      
_________________________________________________________________
gru_1 (GRU)                  (None, 128)               74112     
_________________________________________________________________
dropout_2 (Dropout)          (None, 128)               0         
_________________________________________________________________
name_model_output (Dense)    (None, 1)                 129       
=================================================================
Total params: 92,961
Trainable params: 92,961
Non-trainable params: 0
_________________________________________________________________
Train on 104 samples, validate on 12 samples
Epoch 1/30

 32/104 [========>.....................] - ETA: 1s - loss: 0.3618 - mae: 0.4999 - mse: 0.3618
 64/104 [=================>............] - ETA: 0s - loss: 0.2834 - mae: 0.4294 - mse: 0.2834
…
