…
 65 65 65 65 65 65 60 60 60 60 60 60 60 60 60 60 65 65 65 65 65 65 65 65
 65 65 65 65 65 65 65 65 65 65 65 65 65 65 65 50 50 50 50 50 50 50 50 50
 50 50 50 50 50 50 50 50 50 50 50 50 50 50 50 50 50 50 70 70 70 70 70 70
 70 70 70 70 70 70 70 70 70 85 85 85 85 85 85 85 85 85 85 85 85 85 85 85
 85 85 85 75]
(124, 375, 30, 3, 1)

Loaded dataset of 124 samples, each sized (375, 30, 3, 1)


Train on 99 samples
Test on 25 samples

Model: "model_1"
_________________________________________________________________
Layer (type)                 Output Shape              Param #   
=================================================================
name_model_input (InputLayer (None, 375, 30, 3, 1)     0         
_________________________________________________________________
time_distributed_1 (TimeDist (None, 375, 28, 1, 16)    160       
_________________________________________________________________
time_distributed_2 (TimeDist (None, 375, 14, 1, 16)    0         
_________________________________________________________________
time_distributed_3 (TimeDist (None, 375, 224)          0         
_________________________________________________________________
time_distributed_4 (TimeDist (None, 375, 64)           14400     
_________________________________________________________________
time_distributed_5 (TimeDist (None, 375, 64)           0         
_________________________________________________________________
time_distributed_6 (TimeDist (None, 375, 64)           4160      
_________________________________________________________________
gru_1 (GRU)                  (None, 128)               74112     
_________________________________________________________________
dropout_2 (Dropout)          (None, 128)               0         
_________________________________________________________________
name_model_output (Dense)    (None, 1)                 129       
=================================================================
Total params: 92,961
Trainable params: 92,961
Non-trainable params: 0
_________________________________________________________________
Train on 89 samples, validate on 10 samples
Epoch 1/30

32/89 [=========>....................] - ETA: 0s - loss: 0.2140 - mae: 0.3771 - mse: 0.2140
64/89 [====================>.........] - ETA: 0s - loss: 0.2139 - mae: 0.3796 - mse: 0.2139
…
