…
 50 50 50 50 50 50 50 50 50 50 50 50 50 50 50 50 50 50 70 70 70 70 70 70
 70 70 70 70 70 70 70 70 70 70 70 70 70 70 70 70 70 70 70 70 70 70 85 85
 85 85 85 85 85 85 85 85 85 85 85 85 85 85 85 85 85 85 85 85 85 85 85 85
 85 85 85 85 85 85 85 85 85]
(153, 443, 30, 3, 1)

Loaded dataset of 153 samples, each sized (443, 30, 3, 1)


Train on 122 samples
Test on 31 samples

Model: "model_1"
_________________________________________________________________
Layer (type)                 Output Shape              Param #   
=================================================================
name_model_input (InputLayer (None, 443, 30, 3, 1)     0         
_________________________________________________________________
time_distributed_1 (TimeDist (None, 443, 28, 1, 16)    160       
_________________________________________________________________
time_distributed_2 (TimeDist (None, 443, 14, 1, 16)    0         
_________________________________________________________________
time_distributed_3 (TimeDist (None, 443, 224)          0         
_________________________________________________________________
time_distributed_4 (TimeDist (None, 443, 64)           14400     
_________________________________________________________________
time_distributed_5 (TimeDist (None, 443, 64)           0         
_________________________________________________________________
time_distributed_6 (TimeDist (None, 443, 64)           4160      
_________________________________________________________________
gru_1 (GRU)                  (None, 128)               74112     
_________________________________________________________________
dropout_2 (Dropout)          (None, 128)               0         
_________________________________________________________________
name_model_output (Dense)    (None, 1)                 129       
=================================================================
Total params: 92,961
Trainable params: 92,961
Non-trainable params: 0
_________________________________________________________________
Train on 109 samples, validate on 13 samples
Epoch 1/30

 32/109 [=======>......................] - ETA: 0s - loss: 0.3750 - mae: 0.5239 - mse: 0.3750
 64/109 [================>.............] - ETA: 0s - loss: 0.2815 - mae: 0.4379 - mse: 0.2815
…
