…
 70 70 70 70 70 70 70 70 70 70 70 70 70 85 85 85 85 85 85 85 85 85 85 85
 85 85 85 85 85 85 85 85 85 85 85 85 85 85 85 85 75 75 75 75 75 75 75 75
 75 75 75 75 75 75 75 75 75 75 75 75 75 75 75 75 75 75 75 75 75 85 85 85
 85 85 85 85 85 85 85 85 85 85 85 85 85 85 85 85 85 85 85 85 85 85]
(166, 450, 30, 3, 1)

Loaded dataset of 166 samples, each sized (450, 30, 3, 1)


Train on 132 samples
Test on 34 samples

Model: "model_1"
_________________________________________________________________
Layer (type)                 Output Shape              Param #   
=================================================================
name_model_input (InputLayer (None, 450, 30, 3, 1)     0         
_________________________________________________________________
time_distributed_1 (TimeDist (None, 450, 28, 1, 16)    160       
_________________________________________________________________
time_distributed_2 (TimeDist (None, 450, 14, 1, 16)    0         
_________________________________________________________________
time_distributed_3 (TimeDist (None, 450, 224)          0         
_________________________________________________________________
time_distributed_4 (TimeDist (None, 450, 64)           14400     
_________________________________________________________________
time_distributed_5 (TimeDist (None, 450, 64)           0         
_________________________________________________________________
time_distributed_6 (TimeDist (None, 450, 64)           4160      
_________________________________________________________________
gru_1 (GRU)                  (None, 128)               74112     
_________________________________________________________________
dropout_2 (Dropout)          (None, 128)               0         
_________________________________________________________________
name_model_output (Dense)    (None, 1)                 129       
=================================================================
Total params: 92,961
Trainable params: 92,961
Non-trainable params: 0
_________________________________________________________________
Train on 118 samples, validate on 14 samples
Epoch 1/30

 32/118 [=======>......................] - ETA: 1s - loss: 0.6064 - mae: 0.6823 - mse: 0.6064
 64/118 [===============>..............] - ETA: 0s - loss: 0.4843 - mae: 0.5990 - mse: 0.4843
…
