…
(101, 30, 3)
(101, 462, 30, 3)
[2 2 2 2 2 2 2 2 2 2 2 2 2 2 2 2 2 2 2 2 2 2 2 2 2 2 2 2 2 2 2 2 2 2 2 2 2
 2 2 2 2 2 2 2 2 1 1 1 1 1 1 1 1 1 1 1 1 1 1 1 1 1 1 1 1 1 1 1 1 1 1 1 1 1
 1 1 1 1 1 1 1 1 1 1 1 1 1 1 1 1 1 1 1 1 1 1 1 1 1 1 1]
(101, 462, 30, 3, 1)

Loaded dataset of 101 samples, each sized (462, 30, 3, 1)


Train on 75 samples
Test on 26 samples

Model: "model_1"
_________________________________________________________________
Layer (type)                 Output Shape              Param #   
=================================================================
name_model_input (InputLayer (None, 462, 30, 3, 1)     0         
_________________________________________________________________
time_distributed_1 (TimeDist (None, 462, 28, 1, 16)    160       
_________________________________________________________________
time_distributed_2 (TimeDist (None, 462, 14, 1, 16)    0         
_________________________________________________________________
time_distributed_3 (TimeDist (None, 462, 224)          0         
_________________________________________________________________
time_distributed_4 (TimeDist (None, 462, 64)           14400     
_________________________________________________________________
time_distributed_5 (TimeDist (None, 462, 64)           0         
_________________________________________________________________
time_distributed_6 (TimeDist (None, 462, 64)           4160      
_________________________________________________________________
gru_1 (GRU)                  (None, 128)               74112     
_________________________________________________________________
dropout_2 (Dropout)          (None, 128)               0         
_________________________________________________________________
name_model_output (Dense)    (None, 2)                 258       
=================================================================
Total params: 93,090
Trainable params: 93,090
Non-trainable params: 0
_________________________________________________________________
Train on 67 samples, validate on 8 samples
Epoch 1/30

32/67 [=============>................] - ETA: 0s - loss: 0.7063 - accuracy: 0.4375
64/67 [===========================>..] - ETA: 0s - loss: 0.6965 - accuracy: 0.5156
…
