…
 2 2 2 1 1 2 2 2 2 2 2 2 2 2 2 2 2 2 2 2 2 2 2 2 2 2 2 2 2 2 2 2 1 1 1 1 1
 1 1 1 1 1 1 1 1 1 1 1 1 1 1 1 1 1 1 1 1 1 1 1 1 1 1 1 1 1 1 1 1 1 1 1 1 1
 1 1 1 1 1 1 1 1 1 1 1 1 1 1 1 1 1 1 1 1 1 1 1 1 1 1 1 1 1 1 1 1 1 1 1 1 1
 1 1 1 1 1 1 1 1 1 1 1 1 1 1 1 1 1 1]
(166, 450, 30, 3, 1)

Loaded dataset of 166 samples, each sized (450, 30, 3, 1)


Train on 124 samples
Test on 42 samples

Model: "model_1"
_________________________________________________________________
Layer (type)                 Output Shape              Param #   
=================================================================
name_model_input (InputLayer (None, 450, 30, 3, 1)     0         
_________________________________________________________________
time_distributed_1 (TimeDist (None, 450, 28, 1, 16)    160       
_________________________________________________________________
time_distributed_2 (TimeDist (None, 450, 14, 1, 16)    0         
_________________________________________________________________
time_distributed_3 (TimeDist (None, 450, 224)          0         
_________________________________________________________________
time_distributed_4 (TimeDist (None, 450, 64)           14400     
_________________________________________________________________
time_distributed_5 (TimeDist (None, 450, 64)           0         
_________________________________________________________________
time_distributed_6 (TimeDist (None, 450, 64)           4160      
_________________________________________________________________
gru_1 (GRU)                  (None, 128)               74112     
_________________________________________________________________
dropout_2 (Dropout)          (None, 128)               0         
_________________________________________________________________
name_model_output (Dense)    (None, 2)                 258       
=================================================================
Total params: 93,090
Trainable params: 93,090
Non-trainable params: 0
_________________________________________________________________
Train on 111 samples, validate on 13 samples
Epoch 1/30

 32/111 [=======>......................] - ETA: 1s - loss: 0.6907 - accuracy: 0.5625
 64/111 [================>.............] - ETA: 0s - loss: 0.6686 - accuracy: 0.6094
…
