…
[2 2 2 2 2 2 2 2 2 2 2 2 2 2 2 2 2 2 2 2 2 2 2 2 2 2 2 2 2 2 2 2 2 2 2 2 2
 1 2 2 2 2 2 2 2 2 2 2 2 2 2 2 2 2 2 2 2 2 2 2 2 1 1 1 1 1 1 1 1 1 1 1 1 1
 1 1 1 1 1 1 1 1 1 1 1 1 1 1 1 1 1 1 1 1 1 1 1 1 1 1 1 1 1 1 1 1 1 1 1 1 1
 1 1 1 1 1 1 1 1 1 1 1 1 1 1 1 1 1 1 1 1 1 1 1 1 1 1 1 1 1 1 1 1]
(143, 426, 30, 3, 1)

Loaded dataset of 143 samples, each sized (426, 30, 3, 1)


Train on 100 samples
Test on 43 samples

Model: "model_1"
_________________________________________________________________
Layer (type)                 Output Shape              Param #   
=================================================================
name_model_input (InputLayer (None, 426, 30, 3, 1)     0         
_________________________________________________________________
time_distributed_1 (TimeDist (None, 426, 28, 1, 16)    160       
_________________________________________________________________
time_distributed_2 (TimeDist (None, 426, 14, 1, 16)    0         
_________________________________________________________________
time_distributed_3 (TimeDist (None, 426, 224)          0         
_________________________________________________________________
time_distributed_4 (TimeDist (None, 426, 64)           14400     
_________________________________________________________________
time_distributed_5 (TimeDist (None, 426, 64)           0         
_________________________________________________________________
time_distributed_6 (TimeDist (None, 426, 64)           4160      
_________________________________________________________________
gru_1 (GRU)                  (None, 128)               74112     
_________________________________________________________________
dropout_2 (Dropout)          (None, 128)               0         
_________________________________________________________________
name_model_output (Dense)    (None, 2)                 258       
=================================================================
Total params: 93,090
Trainable params: 93,090
Non-trainable params: 0
_________________________________________________________________
Train on 90 samples, validate on 10 samples
Epoch 1/30

32/90 [=========>....................] - ETA: 0s - loss: 0.6770 - accuracy: 0.5938
64/90 [====================>.........] - ETA: 0s - loss: 0.6482 - accuracy: 0.6250
…
