…
 175 175 175 180 180 180 180 180 180 180 180 180 180 180 180 180 180 180
 180 180 180 180 180 180 180 180 180 180 180 180 180 180 180 180 180 173
 173 173 173 173 173 173 173 173 173 173 173 173 173 173 173 173 173 173
 173 173 173 173 173 173 173]
(115, 421, 30, 3, 1)

Loaded dataset of 115 samples, each sized (421, 30, 3, 1)


Train on 92 samples
Test on 23 samples

Model: "model_1"
_________________________________________________________________
Layer (type)                 Output Shape              Param #   
=================================================================
name_model_input (InputLayer (None, 421, 30, 3, 1)     0         
_________________________________________________________________
time_distributed_1 (TimeDist (None, 421, 28, 1, 16)    160       
_________________________________________________________________
time_distributed_2 (TimeDist (None, 421, 14, 1, 16)    0         
_________________________________________________________________
time_distributed_3 (TimeDist (None, 421, 224)          0         
_________________________________________________________________
time_distributed_4 (TimeDist (None, 421, 64)           14400     
_________________________________________________________________
time_distributed_5 (TimeDist (None, 421, 64)           0         
_________________________________________________________________
time_distributed_6 (TimeDist (None, 421, 64)           4160      
_________________________________________________________________
gru_1 (GRU)                  (None, 128)               74112     
_________________________________________________________________
dropout_2 (Dropout)          (None, 128)               0         
_________________________________________________________________
name_model_output (Dense)    (None, 1)                 129       
=================================================================
Total params: 92,961
Trainable params: 92,961
Non-trainable params: 0
_________________________________________________________________
Train on 82 samples, validate on 10 samples
Epoch 1/30

32/82 [==========>...................] - ETA: 0s - loss: 0.4980 - mae: 0.6174 - mse: 0.4980
64/82 [======================>.......] - ETA: 0s - loss: 0.4136 - mae: 0.5628 - mse: 0.4136
…
