…
 165 165 165 165 165 165 165 165 165 175 175 175 175 175 175 175 175 175
 175 175 175 180 180 180 180 180 180 180 180 180 180 180 180 180 180 180
 180 180 180 180 180 180 180 180 180 180 180 180 180 173 173 173 173 173
 173 173 173 173 173 173 173 173 173 173 173]
(101, 462, 30, 3, 1)

Loaded dataset of 101 samples, each sized (462, 30, 3, 1)


Train on 80 samples
Test on 21 samples

Model: "model_1"
_________________________________________________________________
Layer (type)                 Output Shape              Param #   
=================================================================
name_model_input (InputLayer (None, 462, 30, 3, 1)     0         
_________________________________________________________________
time_distributed_1 (TimeDist (None, 462, 28, 1, 16)    160       
_________________________________________________________________
time_distributed_2 (TimeDist (None, 462, 14, 1, 16)    0         
_________________________________________________________________
time_distributed_3 (TimeDist (None, 462, 224)          0         
_________________________________________________________________
time_distributed_4 (TimeDist (None, 462, 64)           14400     
_________________________________________________________________
time_distributed_5 (TimeDist (None, 462, 64)           0         
_________________________________________________________________
time_distributed_6 (TimeDist (None, 462, 64)           4160      
_________________________________________________________________
gru_1 (GRU)                  (None, 128)               74112     
_________________________________________________________________
dropout_2 (Dropout)          (None, 128)               0         
_________________________________________________________________
name_model_output (Dense)    (None, 1)                 129       
=================================================================
Total params: 92,961
Trainable params: 92,961
Non-trainable params: 0
_________________________________________________________________
Train on 72 samples, validate on 8 samples
Epoch 1/30

32/72 [============>.................] - ETA: 0s - loss: 0.5539 - mae: 0.6803 - mse: 0.5539
64/72 [=========================>....] - ETA: 0s - loss: 0.4188 - mae: 0.5776 - mse: 0.4188
…
