['train-gender-clap.py', '0']
(2550, 30, 3)
(2550, 2396, 30, 3)
[1 2 1 ... 2 1 2]
(2550, 2396, 30, 3, 1)

Loaded dataset of 2550 samples, each sized (2396, 30, 3, 1)


Train on 2295 samples
Test on 255 samples

Model: "model_1"
_________________________________________________________________
Layer (type)                 Output Shape              Param #   
=================================================================
name_model_input (InputLayer (None, 2396, 30, 3, 1)    0         
_________________________________________________________________
time_distributed_1 (TimeDist (None, 2396, 28, 1, 16)   160       
_________________________________________________________________
time_distributed_2 (TimeDist (None, 2396, 14, 1, 16)   0         
_________________________________________________________________
time_distributed_3 (TimeDist (None, 2396, 224)         0         
_________________________________________________________________
time_distributed_4 (TimeDist (None, 2396, 64)          14400     
_________________________________________________________________
time_distributed_5 (TimeDist (None, 2396, 64)          0         
_________________________________________________________________
time_distributed_6 (TimeDist (None, 2396, 64)          4160      
_________________________________________________________________
gru_1 (GRU)                  (None, 128)               74112     
_________________________________________________________________
dropout_2 (Dropout)          (None, 128)               0         
_________________________________________________________________
name_model_output (Dense)    (None, 2)                 258       
=================================================================
Total params: 93,090
Trainable params: 93,090
Non-trainable params: 0
_________________________________________________________________
Train on 2065 samples, validate on 230 samples
Epoch 1/30

  32/2065 [..............................] - ETA: 1:23 - loss: 0.6345 - accuracy: 0.7500
  64/2065 [..............................] - ETA: 1:13 - loss: 0.6164 - accuracy: 0.7344
…
