['gender-widar-keras.py', '0']
(3000, 30, 3)
(3000, 3108, 30, 3)
[1 1 1 ... 1 2 1]
(3000, 3108, 30, 3, 1)

Loaded dataset of 3000 samples, each sized (3108, 30, 3, 1)


Train on 2700 samples
Test on 300 samples

Model: "model_1"
_________________________________________________________________
Layer (type)                 Output Shape              Param #   
=================================================================
name_model_input (InputLayer (None, 3108, 30, 3, 1)    0         
_________________________________________________________________
time_distributed_1 (TimeDist (None, 3108, 28, 1, 16)   160       
_________________________________________________________________
time_distributed_2 (TimeDist (None, 3108, 14, 1, 16)   0         
_________________________________________________________________
time_distributed_3 (TimeDist (None, 3108, 224)         0         
_________________________________________________________________
time_distributed_4 (TimeDist (None, 3108, 64)          14400     
_________________________________________________________________
time_distributed_5 (TimeDist (None, 3108, 64)          0         
_________________________________________________________________
time_distributed_6 (TimeDist (None, 3108, 64)          4160      
_________________________________________________________________
gru_1 (GRU)                  (None, 128)               74112     
_________________________________________________________________
dropout_2 (Dropout)          (None, 128)               0         
_________________________________________________________________
name_model_output (Dense)    (None, 2)                 258       
=================================================================
Total params: 93,090
Trainable params: 93,090
Non-trainable params: 0
_________________________________________________________________
Train on 2430 samples, validate on 270 samples
Epoch 1/30

  32/2430 [..............................] - ETA: 3:22 - loss: 0.7339 - accuracy: 0.3438
  64/2430 [..............................] - ETA: 2:43 - loss: 0.6545 - accuracy: 0.5625
…
