…
178
180
170
186
170
186
180
180
175
178
161
178
178
170
170
178
178
178
170
170
178
186
172
178
160
178
178
161
178
160
161
176
175
178
161
178
178
161
160
178
160
(2550, 30, 3)
(2550, 2396, 30, 3)
[178 161 178 ... 160 178 160]
(2550, 2396, 30, 3, 1)

Loaded dataset of 2550 samples, each sized (2396, 30, 3, 1)


Train on 2040 samples
Test on 510 samples

Model: "model_1"
_________________________________________________________________
Layer (type)                 Output Shape              Param #   
=================================================================
name_model_input (InputLayer (None, 2396, 30, 3, 1)    0         
_________________________________________________________________
time_distributed_1 (TimeDist (None, 2396, 28, 1, 16)   160       
_________________________________________________________________
time_distributed_2 (TimeDist (None, 2396, 14, 1, 16)   0         
_________________________________________________________________
time_distributed_3 (TimeDist (None, 2396, 224)         0         
_________________________________________________________________
time_distributed_4 (TimeDist (None, 2396, 64)          14400     
_________________________________________________________________
time_distributed_5 (TimeDist (None, 2396, 64)          0         
_________________________________________________________________
time_distributed_6 (TimeDist (None, 2396, 64)          4160      
_________________________________________________________________
gru_1 (GRU)                  (None, 128)               74112     
_________________________________________________________________
dropout_2 (Dropout)          (None, 128)               0         
_________________________________________________________________
name_model_output (Dense)    (None, 1)                 129       
=================================================================
Total params: 92,961
Trainable params: 92,961
Non-trainable params: 0
_________________________________________________________________
Train on 1836 samples, validate on 204 samples
Epoch 1/30

  32/1836 [..............................] - ETA: 1:45 - loss: 0.3706 - mae: 0.5570 - mse: 0.3706
  64/1836 [>.............................] - ETA: 1:36 - loss: 0.2808 - mae: 0.4493 - mse: 0.2808
…
