…
178
178
170
178
170
170
170
178
178
180
180
178
161
175
178
178
170
176
178
178
170
178
170
161
161
161
178
161
170
178
170
170
172
178
175
186
178
180
170
170
180
(2550, 30, 3)
(2550, 2314, 30, 3)
[170 178 178 ... 170 170 180]
(2550, 2314, 30, 3, 1)

Loaded dataset of 2550 samples, each sized (2314, 30, 3, 1)


Train on 2040 samples
Test on 510 samples

Model: "model_1"
_________________________________________________________________
Layer (type)                 Output Shape              Param #   
=================================================================
name_model_input (InputLayer (None, 2314, 30, 3, 1)    0         
_________________________________________________________________
time_distributed_1 (TimeDist (None, 2314, 28, 1, 16)   160       
_________________________________________________________________
time_distributed_2 (TimeDist (None, 2314, 14, 1, 16)   0         
_________________________________________________________________
time_distributed_3 (TimeDist (None, 2314, 224)         0         
_________________________________________________________________
time_distributed_4 (TimeDist (None, 2314, 64)          14400     
_________________________________________________________________
time_distributed_5 (TimeDist (None, 2314, 64)          0         
_________________________________________________________________
time_distributed_6 (TimeDist (None, 2314, 64)          4160      
_________________________________________________________________
gru_1 (GRU)                  (None, 128)               74112     
_________________________________________________________________
dropout_2 (Dropout)          (None, 128)               0         
_________________________________________________________________
name_model_output (Dense)    (None, 1)                 129       
=================================================================
Total params: 92,961
Trainable params: 92,961
Non-trainable params: 0
_________________________________________________________________
Train on 1836 samples, validate on 204 samples
Epoch 1/30

  32/1836 [..............................] - ETA: 1:41 - loss: 0.3278 - mae: 0.5086 - mse: 0.3278
  64/1836 [>.............................] - ETA: 1:22 - loss: 0.2763 - mae: 0.4586 - mse: 0.2763
…
