…
170
178
161
161
170
161
176
175
161
161
176
180
178
178
161
178
175
178
178
180
170
161
186
161
186
175
178
161
161
178
172
178
178
170
161
170
178
180
176
176
170
(3000, 30, 3)
(3000, 3108, 30, 3)
[161 180 161 ... 180 176 176]
(3000, 3108, 30, 3, 1)

Loaded dataset of 3000 samples, each sized (3108, 30, 3, 1)


Train on 2400 samples
Test on 600 samples

Model: "model_1"
_________________________________________________________________
Layer (type)                 Output Shape              Param #   
=================================================================
name_model_input (InputLayer (None, 3108, 30, 3, 1)    0         
_________________________________________________________________
time_distributed_1 (TimeDist (None, 3108, 28, 1, 16)   160       
_________________________________________________________________
time_distributed_2 (TimeDist (None, 3108, 14, 1, 16)   0         
_________________________________________________________________
time_distributed_3 (TimeDist (None, 3108, 224)         0         
_________________________________________________________________
time_distributed_4 (TimeDist (None, 3108, 64)          14400     
_________________________________________________________________
time_distributed_5 (TimeDist (None, 3108, 64)          0         
_________________________________________________________________
time_distributed_6 (TimeDist (None, 3108, 64)          4160      
_________________________________________________________________
gru_1 (GRU)                  (None, 128)               74112     
_________________________________________________________________
dropout_2 (Dropout)          (None, 128)               0         
_________________________________________________________________
name_model_output (Dense)    (None, 1)                 129       
=================================================================
Total params: 92,961
Trainable params: 92,961
Non-trainable params: 0
_________________________________________________________________
Train on 2160 samples, validate on 240 samples
Epoch 1/30

  32/2160 [..............................] - ETA: 3:06 - loss: 0.4457 - mae: 0.5748 - mse: 0.4457
  64/2160 [..............................] - ETA: 2:31 - loss: 0.2915 - mae: 0.4485 - mse: 0.2915
…
